model_rnn_sgWSDdetection.pt (torch_old, 37069 bytes, 9 tensors)

weight_ih_l0 f4 [30, 10]
0	0xbeb4dac1	-0.35323146
1	0xbea8802d	-0.3291029
2	0xbe7e0bd6	-0.24809203
3	0xbdd03204	-0.1016579
4	0x3e946f47	0.28991148
5	0xbe610d57	-0.21977745
6	0x3e627fa7	0.22119008
7	0x3ec32849	0.38116673
8	0x3e262f70	0.16229033
9	0xbba047ab	-0.004891356
10	0x3c66b6f2	0.0140817035
11	0xbdacacfa	-0.0843143
12	0xbdc653a1	-0.0968392
13	0x3e5347bb	0.20632832
14	0x3d170ca4	0.03687729
15	0xbe7c1829	-0.24618591
16	0x3d12c3e8	0.035831362
17	0x3e0c3396	0.13691553
18	0x3e6745a2	0.22585157
19	0x3dd587d1	0.104262955
20	0xbd85e89f	-0.065385096
21	0xbd78b48e	-0.060719065
22	0xbec13e81	-0.37743
23	0x3ddf36b8	0.10899109
24	0xbea24641	-0.31694224
25	0xbe820736	-0.25396127
26	0xbd4f0b98	-0.050548166
27	0xbe336779	-0.1751994
28	0x3df0a551	0.117502816
29	0xbc5c0c42	-0.013430657
30	0x3e742ea0	0.23845911
31	0x3c599b76	0.013281694
32	0x3d49cffa	0.049270608
33	0x3d3da8a1	0.046303395
34	0xbddb6ce4	-0.107141286
35	0x3d25c23e	0.040468447
36	0x3cf36ce7	0.029715015
37	0xbadd4868	-0.0016882541
38	0xbd437558	-0.04771933
39	0xbe25a5c3	-0.16176514
40	0x3da21c96	0.079156086
41	0xbea84ddc	-0.32871902
42	0x3e63a11f	0.22229432
43	0xbddb1d8a	-0.106989935
44	0x3d7ea80d	0.062171984
45	0x3e52f04a	0.20599476
46	0x3e3db99e	0.18527839
47	0x3db63da3	0.08898475
48	0xbe89a171	-0.26880983
49	0x3cfb70ef	0.0306935
50	0xbe3f3b81	-0.18675043
51	0xbeb48cb3	-0.35263595
52	0xbe395ced	-0.18101855
53	0x3d9822dd	0.07428525
54	0x3d08bca8	0.03338304
55	0x3eab9516	0.3351218
56	0xbe47b3f8	-0.19502246
57	0x3d722981	0.059121612
58	0x3e1a606e	0.15075848
59	0xbea654d1	-0.32486585
60	0x3e64ea8c	0.22355098
61	0x3d6bdfc4	0.057586446
62	0xbe1fe46e	-0.15614483
63	0xbe4e609b	-0.2015404
64	0xbea7f4df	-0.3280401
65	0x3e0086ad	0.12551375
66	0xbba773c8	-0.0051102377
67	0xbde666e4	-0.112500936
68	0x3e73661b	0.23769419
69	0xbea9de0e	-0.33177227
70	0xbe203e39	-0.15648736
71	0xbe2aaef2	-0.16668299
72	0x3e805bbb	0.25069985
73	0xbe8f8f00	-0.28038788
74	0xbd03b18c	-0.032151744
75	0x3b9fa290	0.004871674
76	0xbdb6b2ab	-0.08920797
77	0xbead9d1b	-0.33908924
78	0x3d99657d	0.074900605
79	0xbe1ba0c5	-0.15198047
80	0xbf059415	-0.5217908
81	0xbe8a6432	-0.27029568
82	0xbf1716b7	-0.59019035
83	0xbeb79f91	-0.35863927
84	0x3ddd0622	0.10792185
85	0xbe206d9a	-0.1566681
86	0x3bee8503	0.00727904
87	0xbe0e5a94	-0.1390174
88	0xbf006691	-0.50156504
89	0xbe2d0272	-0.16895464
90	0x3e10fff1	0.14160134
91	0x3e970eba	0.29503423
92	0xbe4e0fdf	-0.20123242
93	0x3dcb71fc	0.0993385
94	0xbe17fd0a	-0.1484262
95	0x3d69090b	0.05689339
96	0xbe8c4b64	-0.27401268
97	0x3a764113	0.0009393852
98	0xbe9d6e70	-0.3074832
99	0x3d64b9a9	0.05584112
100	0xbea47707	-0.3212206
101	0xbe26063f	-0.1621332
102	0xbc21f54f	-0.009885146
103	0xbe733b17	-0.2375301
104	0xbedde090	-0.4333539
105	0xbea63340	-0.32460976
106	0xbd5097fa	-0.050926186
107	0xbdcefb3d	-0.10106514
108	0xbe942e8e	-0.28941768
109	0xbef904ac	-0.48636377
110	0xbf0b0e4e	-0.543187
111	0xbeadfc53	-0.3398157
112	0xbe19794b	-0.14987676
113	0xbd595178	-0.05305621
114	0x3a9d16fe	0.0011985002
115	0x3dae410a	0.08508499
116	0xbe4e6349	-0.20155062
117	0x39e3d492	0.0004345519
118	0xbd5c3b05	-0.053767223
119	0x3e30a4f5	0.17250426
120	0x3e384773	0.17996006
121	0x3d0f3514	0.03496273
122	0x3d5da99a	0.054116823
123	0xbe5dba37	-0.21653067
124	0xbee7ebba	-0.45297033
125	0xbd41ffdb	-0.047363143
126	0x3e4aa877	0.19790827
127	0xbda898ba	-0.08232255
128	0xbec39950	-0.38202906
129	0xbf1c49a1	-0.6104985
130	0xbf289c6e	-0.6586369
131	0xbe731538	-0.23738563
132	0xbe539fe0	-0.20666456
133	0xbd5b6ebc	-0.0535724
134	0xbd9bc761	-0.07606388
135	0xbe9225dc	-0.2854451
136	0xbeed5dd3	-0.46360645
137	0x3d11ce1a	0.035596944
138	0xbea842d0	-0.32863474
139	0x3d8fd174	0.07022372
140	0xbe8d0ff5	-0.27551237
141	0xbd67109f	-0.056412335
142	0x3ce3b3ab	0.027795633
143	0xbe8f8912	-0.28034264
144	0xbd24cca8	-0.040234238
145	0xbe67c568	-0.22633898
146	0xbe0a5377	-0.13508402
147	0xbe808657	-0.25102493
148	0xbec4bcea	-0.3842538
149	0xbe4d4ea2	-0.20049527
150	0x3e9781eb	0.29591307
151	0x3ec762ca	0.38942558
152	0x3ebc083c	0.36725032
153	0x3e031422	0.12800649
154	0x3df9b227	0.12192183
155	0x3df50180	0.11963177
156	0x3e7acc30	0.24491954
157	0xbd040068	-0.03222695
158	0xbe794715	-0.24343522
159	0xbec928c5	-0.39288917
160	0x3d1bb6d6	0.038016163
161	0xbe07471a	-0.13210717
162	0x3e43b15a	0.19110623
163	0x3d6b71ce	0.05748158
164	0xbe744152	-0.23853043
165	0x395899e4	0.00020656694
166	0xbe91fd9b	-0.28513798
167	0xbed4d0db	-0.41565594
168	0xbefe5736	-0.49675912
169	0xbee80272	-0.45314366
170	0x3e741978	0.2383784
171	0x3dd73575	0.10508243
172	0x3e5fb60f	0.21846794
173	0x3f18c307	0.5967259
174	0x3eb241df	0.3481588
175	0x3f0bebca	0.5465666
176	0x3e8e3a02	0.2777863
177	0x3ebf4dcc	0.37364042
178	0x3eaad596	0.33366078
179	0x3e7e88d5	0.24856885
180	0x3f6219f2	0.8832084
181	0x3f39331c	0.7234361
182	0x3f42d33e	0.7610358
183	0x3f717035	0.9431184
184	0x3ece1bb7	0.4025552
185	0x3f19ff3f	0.601551
186	0x3f2489df	0.64272875
187	0x3e17b6f0	0.14815879
188	0x3e9b591b	0.3034142
189	0x3e07fd36	0.13280186
190	0x3f2303ed	0.63677865
191	0x3ed8ae0a	0.4232028
192	0x3f2e9e33	0.6821014
193	0x3e8b4616	0.2720191
194	0x3ee10066	0.43945616
195	0x3f1b6621	0.6070271
196	0x3ebc1849	0.36737278
197	0xbd6f023f	-0.05835175
198	0xbeb1a5b9	-0.3469675
199	0xbe9f8352	-0.31154877
200	0x3d687668	0.056753546
201	0xbbae7f44	-0.00532523
202	0xbe93254a	-0.28739387
203	0xbe580d9c	-0.21098942
204	0x3ed1eaf9	0.40999582
205	0xbe336c60	-0.1752181
206	0xbd9d6c49	-0.076866694
207	0xbe5d19c4	-0.2159186
208	0x3e39d3f3	0.18147258
209	0xbe7c3ca6	-0.2463251
210	0xbbcc5095	-0.006235192
211	0xbec199ed	-0.3781275
212	0xbee42ea1	-0.44566825
213	0xbe49ccb8	-0.19707
214	0x3e5e6dbb	0.21721546
215	0xbe396ceb	-0.18107955
216	0x3e15f2c8	0.14643395
217	0xbe9bc6ab	-0.3042501
218	0x3eafc94c	0.34333265
219	0xbe979962	-0.2960921
220	0x3de966f7	0.11396592
221	0xbc6074e8	-0.013699748
222	0xbd86b18f	-0.06576835
223	0x3e9b4d40	0.30332375
224	0x3e98f898	0.29877162
225	0x3e7c9ecd	0.24669953
226	0xbe5923e2	-0.21205094
227	0xbe5e50f3	-0.21710567
228	0xbe81abcc	-0.25326383
229	0x3e417f36	0.18896183
230	0xbe808f36	-0.2510926
231	0xbec3db30	-0.38253164
232	0xbeac0fbb	-0.3360575
233	0x3c125f59	0.008933865
234	0xbc29ea82	-0.010370852
235	0xbda95b9e	-0.08269428
236	0xbebe97a7	-0.37225077
237	0x3eb1b772	0.3471027
238	0x3d261f6f	0.04055732
239	0x3e76a3d1	0.24085928
240	0xbea5b6da	-0.32366067
241	0x3e29d239	0.165841
242	0x3e5310bb	0.20611851
243	0xbe42653b	-0.18983929
244	0xbdb1a011	-0.08673108
245	0xbe1a6818	-0.15078771
246	0x3e978f42	0.29601485
247	0x3e835950	0.25654078
248	0x3e4084c3	0.18800645
249	0x3e8ea481	0.27859882
250	0xbe9e35bf	-0.3090038
251	0xbe69e329	-0.22840561
252	0xbe62b6ae	-0.2214
253	0xbdacaa10	-0.08430874
254	0xbd1689d3	-0.036752533
255	0x3e8db512	0.27677208

weight_hh_l0 f4 [30, 10]
0	0x3ebe3fb3	0.37157974
1	0x3f02c0fe	0.5107573
2	0x3d8595f0	0.06522739
3	0x3f34d96d	0.70644265
4	0x3eff5f4b	0.4987739
5	0x3e940c3a	0.28915578
6	0xbed8db6b	-0.42354903
7	0x3dafce99	0.08584327
8	0xbcb475da	-0.022028852
9	0x3c528b77	0.012850634
10	0x3eecb54c	0.4623207
11	0x3dae22a0	0.08502698
12	0x3e87d48d	0.2652935
13	0x3ee93111	0.45545247
14	0x3e078b48	0.13236725
15	0x3e27f6df	0.16402768
16	0xbe6ce0e0	-0.23132658
17	0x3e82ccea	0.25546962
18	0x3e4fa870	0.20279098
19	0xbe143895	-0.1447471
20	0x3daf67cf	0.08564722
21	0x3e4dac9a	0.20085374
22	0x3efe6c15	0.49691835
23	0x3f298f86	0.66234624
24	0xbe19fbb8	-0.1503743
25	0x3df41437	0.11917918
26	0xbe88f75d	-0.26751223
27	0x3eaeed8a	0.34165603
28	0x3eb41843	0.3517476
29	0xbe7ae8c7	-0.2450286
30	0x3ebaeaf3	0.36507377
31	0x3ebeeace	0.37288517
32	0x3e6f3fed	0.2336423
33	0x3ee7ddf1	0.45286515
34	0xbe63485a	-0.22195569
35	0xbde6c04e	-0.11267148
36	0xbe002ad1	-0.12516333
37	0x3eb930f4	0.3617016
38	0x3ef82a49	0.4846976
39	0xbd3c8934	-0.046029285
40	0x3ea7db2f	0.3278441
41	0xbdd53ccb	-0.10411986
42	0x3e1c9153	0.15289812
43	0x3ed5115d	0.4161481
44	0x3ed59f52	0.41723114
45	0xbe7a207d	-0.24426456
46	0xbea56108	-0.3230059
47	0xbe07da51	-0.13266875
48	0xbd8dc4e5	-0.0692232
49	0xbee7b049	-0.45251682
50	0x3da598ce	0.08085786
51	0x3e134cd5	0.14384778
52	0xbe28f1e9	-0.16498531
53	0x3d6f51e3	0.058427703
54	0xbdf2566e	-0.118328914
55	0xbe3d8f2e	-0.1851165
56	0x3cb04a5e	0.021519836
57	0xbdc1fd2f	-0.09472119
58	0x3e3b91bb	0.1831731
59	0x3e2a5208	0.16632855
60	0x3e107756	0.14108023
61	0x3ed36368	0.41286778
62	0x3ecc8756	0.39947003
63	0x3dfa5044	0.12222341
64	0x3e85a4e8	0.26102376
65	0x3e19e00e	0.15026876
66	0xbebeb8d3	-0.37250385
67	0x3e895a7d	0.2682685
68	0xbdfe6341	-0.12421275
69	0xbeb4aa3f	-0.35286137
70	0xbd9b6bad	-0.07588897
71	0x3d829458	0.063759506
72	0x3e9f7a58	0.31148028
73	0x3e16f50b	0.14741914
74	0x3e43a9bf	0.19107722
75	0x3ecd30de	0.40076345
76	0xbcfac4d3	-0.030611431
77	0x3e50b02c	0.20379704
78	0x3e91d0f7	0.2847974
79	0xbdc7749a	-0.09739037
80	0xbd7abcc7	-0.06121519
81	0x3e8188a3	0.25299558
82	0x3e9c9325	0.30581012
83	0x3e66be9a	0.22533646
84	0x3e40eae5	0.18839605
85	0xbe6f5ec2	-0.23375991
86	0x3d0136e7	0.0315465
87	0x3e4d46c0	0.2004652
88	0x3db8ee00	0.0902977
89	0xbea991b8	-0.33118987
90	0xbcebd7db	-0.028789451
91	0xbe5fb6cb	-0.21847074
92	0xbe32bced	-0.17454882
93	0xbdd41027	-0.10354643
94	0xbdd96359	-0.10614652
95	0xbf043d0a	-0.5165564
96	0xbdf61001	-0.12014771
97	0xbe3ec4ce	-0.18629763
98	0x3e7914ee	0.2432439
99	0xbe4c54e7	-0.19954263
100	0x3df12d3a	0.117762044
101	0x3e299fca	0.16564861
102	0xbeefed31	-0.4686065
103	0xbe7852d5	-0.24250348
104	0xbe90e338	-0.28298354
105	0x3ebd10e6	0.36926955
106	0xbe662331	-0.22474362
107	0x3af704c0	0.001884602
108	0x3e2965a4	0.16542679
109	0x3ef35467	0.4752533
110	0x3e43f346	0.1913577
111	0x3ea30f6e	0.3184771
112	0xbe6ea38a	-0.23304573
113	0x3eb809b8	0.35944915
114	0x3dae6685	0.08515648
115	0x3d04e43a	0.032444216
116	0xbde47d97	-0.11156767
117	0x3f01ede2	0.50753605
118	0x3dae326e	0.085057124
119	0x3e1f5d4d	0.15562935
120	0x3efc0d93	0.49229106
121	0x3dead956	0.11467235
122	0x3e8d9984	0.27656186
123	0xbb5339f8	-0.0032230597
124	0xbe8b09ed	-0.2715601
125	0x3f00969b	0.50229806
126	0xbdf05b58	-0.117361724
127	0x3a08edbb	0.0005223413
128	0xbec405e4	-0.38285744
129	0x3f0df625	0.5545371
130	0x3de8b761	0.11363102
131	0xbd8c03e4	-0.068366796
132	0x3dd171f8	0.10226816
133	0x3e135a87	0.14390002
134	0xbe2afc29	-0.16697754
135	0x3f047b2f	0.51750463
136	0xbec4aad1	-0.38411573
137	0xbe8de059	-0.27710226
138	0xbea7730e	-0.32704967
139	0x3e9480b1	0.29004434
140	0x3f0d4dd1	0.55196863
141	0x3ea71586	0.3263361
142	0x3ec13df7	0.37742588
143	0x3e9b1a46	0.30293483
144	0x3ddebe08	0.10876089
145	0x3ecdebc1	0.40218928
146	0xbe32bf23	-0.17455725
147	0x3da1d509	0.07901961
148	0xbdcfecc6	-0.10152583
149	0xbe509b2f	-0.20371698
150	0x3eaee8ae	0.34161896
151	0x3e90b69e	0.28264326
152	0x3d2b53db	0.041828018
153	0xbed826e9	-0.42217186
154	0xbf540a00	-0.8282776
155	0x3dd9f324	0.106420785
156	0xbf01c228	-0.50686884
157	0x3f4e6c9b	0.8063447
158	0x3e00a065	0.12561186
159	0xbf010a04	-0.5040591
160	0x3eb83ef2	0.35985523
161	0x3ebce1c8	0.36891007
162	0x3e1cc4f2	0.15309504
163	0x3e0d6bf3	0.1381071
164	0x3c194958	0.009355865
165	0x3d4283cd	0.047488976
166	0xbefef9a1	-0.49799827
167	0x3cb11318	0.02161555
168	0xbca08cec	-0.019598447
169	0x3efdf597	0.49601433
170	0xbe084606	-0.13307962
171	0xbde054f9	-0.10953707
172	0xbe496e93	-0.19671087
173	0x3eca01fb	0.39454636
174	0x3e406dcd	0.18791886
175	0x3ebd6785	0.36993042
176	0xbe429401	-0.19001772
177	0x3e39e56a	0.18153921
178	0x3eb2d81b	0.349305
179	0x3e5c7b10	0.2153132
180	0x3e8ab075	0.2708775
181	0xbe744a2f	-0.23856424
182	0x3ed07aa9	0.40718582
183	0xbeaf0bf6	-0.34188813
184	0xbc6b3bc9	-0.014357516
185	0x3e9c972a	0.3058408
186	0xbe6e0f52	-0.23248032
187	0x3e360108	0.17773831
188	0xbdae9a10	-0.08525479
189	0x3e3c17c7	0.18368445
190	0x3f0a4776	0.5401529
191	0x3ed1802b	0.40918097
192	0x3d518bd9	0.05115876
193	0xbf0e459a	-0.55574954
194	0xbf23dd80	-0.6400986
195	0x3ef9b9e1	0.48774627
196	0xbe37a242	-0.1793299
197	0x3e8ac27b	0.27101502
198	0x3edb90ac	0.42883813
199	0xbe8372fe	-0.2567367
200	0x3e9d2757	0.30694076
201	0xbe1f4b50	-0.15556073
202	0x3f0d099c	0.5509279
203	0x3f1d5fd7	0.61474365
204	0x3ea56b89	0.32308605
205	0xbe5af5a5	-0.21382768
206	0xbe7045b8	-0.23464096
207	0x3d4a94aa	0.049458183
208	0x3e06169b	0.13094561
209	0xbe5e2a41	-0.21695806
210	0x3e00273e	0.1251497
211	0x3f09fdc6	0.5390285
212	0x3e343c7a	0.17601195
213	0x3ef9c76b	0.48784956
214	0x3d90c2e7	0.07068425
215	0xbe4b5586	-0.19856843
216	0xbed60669	-0.41801766
217	0x3e072a68	0.1319977
218	0x3ec83b72	0.39107853
219	0xbd955313	-0.07291236
220	0x3eb138be	0.34613603
221	0x3e904b0a	0.2818225
222	0x3f16c76e	0.58898056
223	0x3f0fcf5f	0.561758
224	0xbdd89cbc	-0.1057677
225	0xbed626ec	-0.4182657
226	0xbf0f9ffd	-0.561035
227	0x3e4f4a4c	0.20243186
228	0xbe2564ec	-0.1615178
229	0xbddf1a34	-0.1089367
230	0x3c0616cd	0.008184147
231	0x3e617af9	0.22019567
232	0x3ea7551b	0.32682118
233	0x3f38ffde	0.7226542
234	0xbdd8c293	-0.10583987
235	0x3d927b41	0.07152415
236	0xbebf8ae4	-0.37410653
237	0x3ebbeb7e	0.36703104
238	0x3f1d65b0	0.6148329
239	0xbe621c8e	-0.22081205
240	0x3eb2b879	0.34906366
241	0xbdf4f656	-0.11961047
242	0x3e8e3ccc	0.2778076
243	0x3e65da84	0.22446638
244	0x3e357ec8	0.17724144
245	0x3df8e247	0.12152534
246	0xbe9dc931	-0.3081756
247	0x3e5ccf02	0.21563342
248	0x3ebded60	0.37095165
249	0xbf05f509	-0.5232702
250	0xbc6f52e6	-0.014607167
251	0x3d540c00	0.051769257
252	0x3d9abc92	0.07555498
253	0x3d4eb7ed	0.050468374
254	0x3e8024f3	0.2502819
255	0x3e0506aa	0.12990823

bias_ih_l0 f4 [30]
0	0xbdc7b385	-0.097510375
1	0x3e20e8e5	0.15713842
2	0x3e9da3ea	0.3078912
3	0x3dae196d	0.08500943
4	0x3e411da5	0.18858965
5	0x3e4dae50	0.20086026
6	0x3ddc5104	0.1075764
7	0xbe3c6cb5	-0.18400843
8	0x3e81657a	0.25272733
9	0x3ec8f1f3	0.39247093
10	0x3e44d4f9	0.19221868
11	0xbe2b34d7	-0.16719376
12	0xbc1427d9	-0.009042704
13	0xbb61c232	-0.0034448025
14	0xbd87c732	-0.0662979
15	0x3f4f5e28	0.81003046
16	0x3dab578b	0.08366307
17	0xbe90ccd9	-0.28281286
18	0x3ea5220d	0.3225254
19	0x3f22aa34	0.6354096
20	0x3dfe6880	0.124222755
21	0x3d0c7a7a	0.03429649
22	0xbe60b885	-0.21945389
23	0xbdf7900d	-0.120880224
24	0xbe5002c6	-0.20313558
25	0xbeb1a4ab	-0.34695944
26	0xbe875e28	-0.26439023
27	0x3e90d511	0.28287557
28	0xbe21e998	-0.15811765
29	0xbeb07a4c	-0.34468305

bias_hh_l0 f4 [30]
0	0x3e9bbfc8	0.30419755
1	0xbe1be2af	-0.15223192
2	0x3ecd4baa	0.4009679
3	0x3d8f4e93	0.06997409
4	0x3e3fe29b	0.18738787
5	0x3d0f54f9	0.034993146
6	0x3f0dcad0	0.5538759
7	0x3ebf61f2	0.37379414
8	0x3e7550bd	0.2395658
9	0x3df6d726	0.12052755
10	0x3e8b8f8b	0.27257952
11	0x3e0b59ad	0.13608427
12	0x3e0e85e7	0.13918267
13	0x3ecbcaef	0.39803264
14	0x3e242344	0.16029078
15	0x3ea278b4	0.31732714
16	0x3e1b21fb	0.15149681
17	0x3d93480e	0.07191478
18	0x3eb83f41	0.3598576
19	0x3e95076a	0.2910722
20	0x3dbbdf75	0.091734804
21	0x3e25b102	0.16180804
22	0x3c4b614e	0.012413336
23	0x3e627e0d	0.22118397
24	0x3e1de800	0.15420532
25	0x3e19f522	0.15034917
26	0x3e756b84	0.23966795
27	0xbe9b1751	-0.30291227
28	0xbdcf394a	-0.10118349
29	0xbe0d5d5c	-0.13805145

weight f4 [100, 10]
0	0x3db68084	0.08911231
1	0xbeb37181	-0.35047534
2	0x3e517b5f	0.20457219
3	0x3d2f3c72	0.042782255
4	0x3d359806	0.044334434
5	0x3e726c04	0.23674017
6	0x3d355516	0.044270597
7	0xbea59bb0	-0.32345343
8	0x3da900a4	0.08252075
9	0xbe13b822	-0.1442571
10	0xbe93d50d	-0.28873482
11	0x3d654de9	0.055982504
12	0x3ea56360	0.3230238
13	0xbea42af4	-0.3206402
14	0x3e5030f6	0.20331177
15	0x3e8d4009	0.27587917
16	0xbea76551	-0.32694486
17	0xbea3506f	-0.31897303
18	0xbd4ce787	-0.05002549
19	0x3ea61ade	0.32442373
20	0x3d5f6c04	0.05454637
21	0xbe72ee95	-0.23723824
22	0xbc974518	-0.018465564
23	0xbcbb7a99	-0.022885608
24	0x3e9a692c	0.30158365
25	0xbdc5e872	-0.09663476
26	0xbeb5def8	-0.35521674
27	0xbdd57e0d	-0.10424433
28	0xbe58dad9	-0.21177234
29	0x3d5bb254	0.053636864
30	0x3e1e2049	0.15442003
31	0xbd2fc0db	-0.04290853
32	0x3e668fda	0.22515813
33	0xbe6fcf31	-0.23418881
34	0x3e43f552	0.19136551
35	0x3e4a8103	0.19775777
36	0x3d378fa3	0.044814717
37	0xbcbbc1cf	-0.022919564
38	0x3dd4aeaf	0.10384881
39	0x3df9e37f	0.122015946
40	0x3d51d2ae	0.05122631
41	0xbe02ff92	-0.12792805
42	0xbd6c8f25	-0.0577537
43	0x3e30a3ec	0.17250031
44	0x3e6847c0	0.2268362
45	0x3d91ffba	0.07128854
46	0xbeb4b49d	-0.35294047
47	0xbc8d96a4	-0.017283745
48	0xbebf0e92	-0.37315804
49	0x3e5e19ca	0.21689525
50	0xbde4d2ff	-0.11173057
51	0x3de791d8	0.11307114
52	0xbe5f9c31	-0.21836926
53	0x3e2a3e3a	0.166253
54	0xbe51ab5b	-0.20475523
55	0x3e2a2ef6	0.16619477
56	0x3eaa9c80	0.33322525
57	0x3e9c09fe	0.30476373
58	0x3e13d571	0.1443689
59	0xbe84f2e2	-0.25966555
60	0x3d31c6f0	0.043402612
61	0x3e8e49d6	0.27790707
62	0xbe7aa04b	-0.2447521
63	0xbe5456ec	-0.20736283
64	0x3e014b90	0.12626481
65	0xbe18b5c1	-0.14913084
66	0xbe6f3f69	-0.23364033
67	0x3e86d6f2	0.26335865
68	0x3e86f3b9	0.2635782
69	0xbe8c49ae	-0.27399963
70	0xbdd9fdc0	-0.10644102
71	0x3cfcabcf	0.030843643
72	0xbdccd26f	-0.100010745
73	0xbe8c4f0b	-0.27404055
74	0x3e030fb0	0.12798953
75	0x3e1c6eea	0.15276685
76	0xbed024f6	-0.406532
77	0xbc436775	-0.011926522
78	0xbd1909df	-0.03736293
79	0xbd912c29	-0.07088501
80	0x3e2b5b6c	0.16734093
81	0xbd1668ce	-0.036721043
82	0x3ead7b90	0.33883333
83	0xbdb261a1	-0.087100275
84	0xbe4ad21b	-0.19806711
85	0xbd368cb4	-0.04456778
86	0xbe9f6d86	-0.31138247
87	0xbd9cdb31	-0.07658995
88	0xbeb00fbc	-0.34387004
89	0x3ec51758	0.38494372
90	0xba8f539e	-0.0010934954
91	0x3e8fc8e7	0.28082964
92	0x3e2e3645	0.1701289
93	0xbe4e192a	-0.20126787
94	0x3e8ddfee	0.27709907
95	0xbe693010	-0.2277224
96	0x3ea62857	0.32452652
97	0x3c0d1eaf	0.008613273
98	0x3e15bccf	0.14622806
99	0xbc492b43	-0.012278381
100	0x3e657847	0.22409163
101	0x3dec311a	0.11532803
102	0x3e59dc58	0.2127546
103	0xbd23f688	-0.040030032
104	0xbdde20d5	-0.10846106
105	0xbcd9e746	-0.026599538
106	0xbd814f7e	-0.0631399
107	0x3daba858	0.083817184
108	0xbea9a158	-0.33130908
109	0x3e8d23cc	0.27566373
110	0x3e13216e	0.14368221
111	0x3ea517e5	0.32244793
112	0xbcd915ed	-0.026499713
113	0x3e747865	0.23874052
114	0xbe4614a4	-0.19343811
115	0xbe9bf94d	-0.3046364
116	0x3e0edcd6	0.1395143
117	0x3e18c690	0.14919496
118	0x3e69f520	0.22847414
119	0xbeb26993	-0.34846172
120	0xbdb1ae97	-0.086758785
121	0xbe834cde	-0.25644583
122	0x3d82f2c3	0.063939594
123	0xbc852e99	-0.016257571
124	0xbe8974a1	-0.26846793
125	0x3be4810e	0.0069733923
126	0xbea67e9b	-0.32518467
127	0xbe3524f1	-0.17689873
128	0xbcf52ea8	-0.029929474
129	0x3ea35e9a	0.31908113
130	0x3de78dcb	0.11306342
131	0xbd4f8eb3	-0.050673198
132	0xbe8ab17c	-0.27088535
133	0xbcf81b36	-0.030286413
134	0xbb5185e6	-0.0031970679
135	0xbe239b9f	-0.15977333
136	0x3ec32f5a	0.38122064
137	0x3e81f6d2	0.2538362
138	0x3eab308d	0.3343548
139	0xbd6e49be	-0.058175795
140	0xbe906f62	-0.28209978
141	0x3dff295e	0.12459062
142	0xbe392a78	-0.18082607
143	0x3e4cb259	0.19989909
144	0x3dea6fb1	0.11447085
145	0x3e2b8096	0.1674827
146	0xbe8f5edf	-0.28002068
147	0xbe5a2690	-0.21303773
148	0x3de23937	0.11046069
149	0xbe0b9a02	-0.13632968
150	0x3e5a7291	0.21332766
151	0xbd92c50a	-0.071664885
152	0xbe70dcf2	-0.23521784
153	0x3dbe16d2	0.092816964
154	0x3d5ea503	0.054356586
155	0xbe0620b9	-0.1309842
156	0xbe3d9ecc	-0.18517607
157	0xbdb4ab9a	-0.08821793
158	0xbe2750fa	-0.16339484
159	0x3ebce7cc	0.36895597
160	0xbeb64683	-0.3560067
161	0xbdbbef11	-0.09176458
162	0xbe5fd98c	-0.21860331
163	0xbd938b81	-0.07204343
164	0xbdd48eee	-0.10378824
165	0x3e3f7c19	0.18699683
166	0xbdd8574c	-0.105635256
167	0x3e486ad0	0.19571996
168	0xbd081b1d	-0.033228982
169	0xbb679e65	-0.0035342213
170	0xbd1e6c9f	-0.038677808
171	0x3da14535	0.07874528
172	0xbda47ce2	-0.08031632
173	0xbd50e1db	-0.050996643
174	0xbe7d3f8a	-0.2473127
175	0xbd5c232a	-0.053744473
176	0xbde2e6ea	-0.110791996
177	0x3e3c9cde	0.18419215
178	0x3d859b21	0.06523729
179	0xbe632819	-0.22183265
180	0xbe902e9e	-0.28160566
181	0xbdd10571	-0.10206116
182	0x3e34f8f3	0.17673092
183	0x3e00fcc6	0.12596425
184	0x3e3835ab	0.17989223
185	0xbdec3216	-0.11532991
186	0x3eb30f23	0.34972486
187	0x3e97185f	0.2951078
188	0xbe076ab7	-0.13224302
189	0xbe927c5d	-0.28610507
190	0x3dce4f9b	0.10073777
191	0x3dc13065	0.09433059
192	0xbd82ddab	-0.06389936
193	0x3d91a64a	0.07111795
194	0x3dfbf7b4	0.12303105
195	0xbe1ae191	-0.1512511
196	0xbea3e129	-0.3200772
197	0xbe324aad	-0.17411299
198	0xbe95bcde	-0.29245657
199	0x3ebfeb33	0.3748413
200	0x3dcd3213	0.100193165
201	0x3e5730d7	0.21014725
202	0x3dfaca2e	0.12245594
203	0xbb244ac2	-0.0025068973
204	0x3cf06cee	0.029348817
205	0x3e2c80a3	0.16845946
206	0x3e6dafde	0.2321162
207	0xbd84fb11	-0.064931996
208	0x3ddbbcce	0.10729371
209	0x3e6a1d9d	0.22862859
210	0xbdd60057	-0.104492836
211	0xbcfa1978	-0.030529723
212	0xbdeae459	-0.11469335
213	0xbe55a0bf	-0.20862101
214	0xbe48ad32	-0.19597319
215	0xbe9c6388	-0.30544686
216	0x3dffbd70	0.12487304
217	0x3c2bd73d	0.0104883285
218	0x3e6bdbc2	0.2303305
219	0xbcff87b0	-0.03119263
220	0xbd8b45c7	-0.06800418
221	0x3e4b417e	0.19849202
222	0xbe8ad9d2	-0.2711931
223	0x3e39934f	0.181226
224	0x3e64e862	0.22354272
225	0xbe3beefb	-0.18352883
226	0x3cc92b4c	0.024556778
227	0x3db50d94	0.088404804
228	0x3ddeb135	0.10873643
229	0x3db4cbf7	0.08827966
230	0xbdac8e28	-0.08425552
231	0xbd99203f	-0.074768536
232	0x3dcbaf94	0.09945598
233	0xbe10c4dd	-0.14137597
234	0xbe4b4e6a	-0.19854131
235	0x3e4ec97f	0.20194052
236	0x3daaff27	0.08349448
237	0x3ea2adf0	0.3177333
238	0xbe0d7fe7	-0.13818322
239	0xbdaee804	-0.08540347
240	0x3e6ccbe0	0.23124647
241	0x3e7fb94a	0.24973026
242	0xbe6725ac	-0.22572964
243	0x3d7f8846	0.06238582
244	0x3e5922f1	0.21204735
245	0xbdbe1d79	-0.09282965
246	0x3e1ecc87	0.15507708
247	0x3deaa02d	0.11456332
248	0xbe466775	-0.19375403
249	0x3aae93ca	0.0013319191
250	0xbc6a8282	-0.014313342
251	0xbd524f69	-0.051345263
252	0xbdbc5af1	-0.09197033
253	0xbe0f1eaa	-0.13976541
254	0x3e28cf91	0.1648543
255	0xbe85c9b4	-0.2613045

bias f4 [100]
0	0x3e2c9808	0.1685487
1	0x3e746e9b	0.23870318
2	0x3e5e8d6f	0.2173364
3	0xbdaec3fe	-0.08533476
4	0xbca978ce	-0.020687487
5	0xbe79af45	-0.24383266
6	0xbe338343	-0.17530541
7	0xbdda557b	-0.10660835
8	0x3da677af	0.081282966
9	0x3cd08140	0.025452256
10	0xbd9e76ae	-0.0773748
11	0xbe7524d6	-0.23939833
12	0x3e4ae396	0.1981338
13	0xbe4a5040	-0.19757175
14	0x3d38f841	0.04515863
15	0x3d0116ef	0.03151601
16	0x3e3e36bb	0.18575566
17	0xbdf3be10	-0.11901486
18	0x3e5150aa	0.20440927
19	0x3d9fdb62	0.07805516
20	0xbe8931ba	-0.2679575
21	0x3e8e1b68	0.27755284
22	0xbda6e249	-0.08148629
23	0xbda1faad	-0.07909141
24	0xbe2496ec	-0.16073197
25	0x3e824325	0.25441852
26	0x3d6ac7be	0.057319395
27	0x3d6f5c8a	0.05843786
28	0x3d8cc3c7	0.06873279
29	0x3e0d43dc	0.13795418
30	0xbdde625d	-0.10858605
31	0x3d6f3748	0.05840233
32	0xbdc3c094	-0.09558216
33	0xbe33f3be	-0.17573449
34	0xbe1244b9	-0.14284028
35	0x3e0ee3fa	0.13954154
36	0x3a44a260	0.00075010024
37	0xbe3a5f44	-0.18200403
38	0x3e4711da	0.19440404
39	0x3e76aad6	0.24088606
40	0xbd3e6c2d	-0.046489883
41	0xbc35f277	-0.011105171
42	0xbe63ee90	-0.22258973
43	0xbe9873c4	-0.29775822
44	0x3e1a696c	0.15079278
45	0xbe139e0a	-0.14415756
46	0xbe7ae2fb	-0.24500649
47	0xbe6b37e4	-0.2297054
48	0xbdb39db1	-0.087703116
49	0x3e14d07a	0.14532652
50	0x3e221249	0.15827288
51	0xbdafd931	-0.08586348
52	0x3dcfea7d	0.10152147
53	0x3e006141	0.125371
54	0x3d304742	0.043036707
55	0x3e8af3af	0.2713904
56	0xbe70a3a8	-0.2349993
57	0x3d4c141f	0.049823876
58	0xbe6d8a3d	-0.23197265
59	0x3d7392c5	0.059466142
60	0xbc31f043	-0.0108605055
61	0x3e263219	0.16230048
62	0xbda19473	-0.078896426
63	0x3d77b1a8	0.06047216
64	0xbdaeb8f9	-0.085313745
65	0x3e073ee3	0.13207583
66	0xbe027859	-0.12741221
67	0xbd91b43d	-0.07114456
68	0xbe92722a	-0.28602725
69	0xbd8ed4ad	-0.069741584
70	0xbdf9f3d8	-0.12204713
71	0x3dfffd9a	0.124995425
72	0x3c5d6a15	0.013514061
73	0x3d5e4d23	0.054272782
74	0xbe66f564	-0.22554547
75	0x3e96a8f9	0.2942579
76	0xbd9bf8b5	-0.076157965
77	0xbe42d849	-0.19027819
78	0x3e430d3e	0.1904802
79	0x3d929f03	0.07159235
80	0x3cd03a84	0.025418527
81	0xbe0a985b	-0.13534681
82	0xbd784352	-0.060611077
83	0xbd8a8990	-0.06764519
84	0x3e5ba4c5	0.21449573
85	0xbe9207f8	-0.28521705
86	0x3d7ca17f	0.061677452
87	0x3ce76445	0.028246054
88	0x3e1a4b1e	0.15067717
89	0x3d6b0727	0.057379868
90	0x3e320895	0.17386086
91	0x3e5d2780	0.215971
92	0xb8e6f5ce	-0.00011013039
93	0x3dea571b	0.11442395
94	0xbd88ab70	-0.06673324
95	0x3d173471	0.036915246
96	0xbe05ac59	-0.13054027
97	0x3d78aa2a	0.060709156
98	0x3d12d819	0.035850618
99	0xbca599e1	-0.020214977

weight f4 [50, 100]
0	0xbdad4126	-0.08459692
1	0x3d5ef907	0.05443671
2	0xbdad89c4	-0.08473542
3	0x3cd58eae	0.026069012
4	0xbd833dc5	-0.06408266
5	0xbd8c8d25	-0.06862859
6	0x3b29964d	0.002587694
7	0xbd7bf92f	-0.061516937
8	0xbd4fbadb	-0.05071531
9	0xbd665320	-0.056231618
10	0x3d828f79	0.063750215
11	0xbd321924	-0.043481007
12	0x3cb8dabd	0.02256524
13	0xbc612557	-0.013741813
14	0xbdb2f6ff	-0.08738517
15	0x3d226287	0.039644744
16	0xbd65d992	-0.056115694
17	0x3d6e3e21	0.05816472
18	0xbd9b6d5a	-0.075892165
19	0xbddbc99b	-0.107318126
20	0x3c3a9a81	0.011389376
21	0xbc978dde	-0.018500265
22	0xbd731b01	-0.059351925
23	0x3dc370c0	0.0954299
24	0x3dbf86c5	0.09351877
25	0xbd9a88ec	-0.07545647
26	0x3d8b9eb0	0.068173766
27	0x3d9921fb	0.074771844
28	0xbbe24236	-0.0069048656
29	0xbd35e56a	-0.04440824
30	0x3cc2786d	0.023739064
31	0xbca72cb4	-0.020407058
32	0xbc2610f2	-0.010135876
33	0x3ceb5829	0.028728561
34	0x3db8b3d6	0.09018676
35	0xbc87d500	-0.016581059
36	0xbd7b7d82	-0.06139899
37	0x3cba163a	0.022715677
38	0x3d9a6233	0.07538261
39	0x3da76ef2	0.08175458
40	0x3da233b8	0.07920021
41	0xbd3ef7e0	-0.04662311
42	0xbd717d6b	-0.0589575
43	0x3d3b9cf1	0.045803968
44	0x3cc451d1	0.023964794
45	0x3dd31a04	0.103076965
46	0xbcdda211	-0.027054818
47	0xbd1384d8	-0.03601536
48	0xbbaea5e4	-0.0053298343
49	0x3d97e0f1	0.07415951
50	0x3d17c324	0.037051335
51	0x3dd394b8	0.103311
52	0xbd4647d8	-0.04840836
53	0xbd3159f0	-0.04329866
54	0x3d6e32de	0.05815398
55	0xbd239bda	-0.039943554
56	0x3da5c48d	0.0809413
57	0xbd2622bc	-0.04056047
58	0x3d9d85e4	0.07691553
59	0x3d9c92d5	0.076451935
60	0x3b944713	0.0045250743
61	0xbc63eb37	-0.01391106
62	0xbd5f7482	-0.05455447
63	0xbd7321b2	-0.059358306
64	0xbd2bec71	-0.041973535
65	0xbda75faa	-0.08172543
66	0x3da14eb2	0.07876338
67	0x3d2cca34	0.042185023
68	0xbd217cd6	-0.039425693
69	0x3da2da27	0.079517655
70	0x3c82c06f	0.0159609
71	0x3b985af0	0.0046495125
72	0x3d7f3975	0.062310655
73	0x3dcc98c2	0.09990074
74	0x3d9436b6	0.07236998
75	0xbd307aa2	-0.0430857
76	0xbdc880d3	-0.09790196
77	0xbd4ad1df	-0.049516555
78	0xbca0a0df	-0.01960796
79	0x3d708f49	0.058730397
80	0x3d4f7436	0.050647937
81	0xbda646e7	-0.08118992
82	0x3daf23c6	0.08551745
83	0x3dbadff8	0.0912475
84	0xbcee688a	-0.029102582
85	0x3dbe3527	0.09287482
86	0x3d696940	0.05698514
87	0xbd889108	-0.066682875
88	0xbd40a618	-0.0470334
89	0xbda1b045	-0.07894949
90	0x3dafd510	0.0858556
91	0x3d61b79f	0.055106755
92	0x3d9123d1	0.070869096
93	0x3d694b5d	0.056956638
94	0x3d4a5d97	0.04940566
95	0x3d861c8a	0.06548412
96	0xbce2501b	-0.027626088
97	0xbd2f8dfd	-0.04286002
98	0x3db3d396	0.08780591
99	0xbd1d3d02	-0.03838826
100	0x3d5e1182	0.054215916
101	0x3d909836	0.07060282
102	0xbd60e94a	-0.05490998
103	0xbd9c6b64	-0.07637671
104	0x3e08affe	0.13348386
105	0x3d0783be	0.033084624
106	0xbdfed8a0	-0.12443662
107	0x3d38d953	0.04512913
108	0x3e0358e4	0.12826878
109	0xbda6e763	-0.08149602
110	0xbb8650d2	-0.00409899
111	0xbc4ecff9	-0.012622827
112	0x3e1384d8	0.14406145
113	0xbd47f59c	-0.048818216
114	0xbce97e60	-0.028502643
115	0xb9bd1d2e	-0.0003607063
116	0x3ce8eb7e	0.028432604
117	0x3c196515	0.009362479
118	0x3cf815ea	0.030283887
119	0xbd396016	-0.04525765
120	0xbd2e3173	-0.042527627
121	0x3d76be5b	0.06024013
122	0xbcbe174c	-0.023204468
123	0x3bc9088e	0.006135053
124	0x3d44a35f	0.048007365
125	0x3d3247a3	0.04352535
126	0x3c198778	0.009370677
127	0x3bbe25ac	0.0058028307
128	0x3d71c61f	0.059026834
129	0xbd8136a3	-0.06309249
130	0x3d7e1035	0.062027175
131	0x3d6391fd	0.055559147
132	0xbdacb105	-0.08432201
133	0xbd507318	-0.050891012
134	0x3da909ee	0.08253847
135	0xbddcfeed	-0.10790811
136	0x3d653aae	0.055964164
137	0x3d7781f8	0.060426682
138	0xbd75020e	-0.059816413
139	0xbcd782c5	-0.026307473
140	0xbc8d8156	-0.017273586
141	0xbe013479	-0.12617673
142	0x3e0e59f5	0.13901503
143	0x3b4b58f4	0.0031028362
144	0xbbd38f94	-0.006456325
145	0x3d57f4a7	0.052723553
146	0x3de2f37e	0.11081599
147	0xbdf43895	-0.11924855
148	0x3ddc52ac	0.10757956
149	0x3d405bb0	0.04696244
150	0x3dbd9df5	0.092586435
151	0x3e185508	0.14876187
152	0x3d53b5e4	0.051687136
153	0x3d245046	0.040115617
154	0xbca33810	-0.019924194
155	0xbe0f8b2f	-0.14017938
156	0x3d168a76	0.03675314
157	0xbcc7b080	-0.024376154
158	0x3d01f17f	0.03172445
159	0xbdd2aaf5	-0.10286514
160	0x3d1075e2	0.03526867
161	0x3d5751c0	0.052568197
162	0xba858bf1	-0.00101888
163	0xbd6686bf	-0.056280848
164	0x3d48eece	0.049055867
165	0x3c83f046	0.016105782
166	0x3c32e54c	0.010918926
167	0xbcaa6a02	-0.020802502
168	0x3d46d585	0.04854347
169	0x3d62d0a4	0.055374756
170	0x3d8468b0	0.0646528
171	0x3b9288d3	0.004471877
172	0x3dc39f15	0.09551827
173	0x3d8f4e9e	0.06997417
174	0x3d23fcf2	0.04003615
175	0xbd0c639a	-0.034274675
176	0xbc37c22c	-0.011215728
177	0xbd710e58	-0.05885157
178	0x3d6e3d37	0.058163848
179	0xbaf52522	-0.0018703083
180	0x3dbe5eb9	0.09295411
181	0x3c46b957	0.012129149
182	0xbd2299ee	-0.03969758
183	0x3d412088	0.047150165
184	0x3d034ddc	0.032056674
185	0x3cdd6c6f	0.027029244
186	0xbd786d51	-0.060651127
187	0xbd3e8a4e	-0.046518616
188	0xbc378290	-0.011200562
189	0xbc6b335f	-0.01435551
190	0xbdc70e72	-0.09719552
191	0x3d03731e	0.032092206
192	0xbddb8b46	-0.10719924
193	0x3d09e0c6	0.033661626
194	0xbd0cf8a2	-0.034416802
195	0xbd8e8c8d	-0.06960402
196	0xbddf6ad8	-0.10909051
197	0xbd2d05e7	-0.042241957
198	0xbd97df0f	-0.07415592
199	0x3cd45211	0.025918039
200	0x3d58bfa0	0.052917123
201	0x3c3d1bc5	0.011542265
202	0x3c7d9261	0.015476794
203	0xbbc2be7c	-0.0059431177
204	0x3de05b04	0.1095486
205	0xbcdb5ae5	-0.02677674
206	0xbd9f077b	-0.07765099
207	0x3ccab9ba	0.024746764
208	0xbd1d4f9a	-0.038405992
209	0xbd8cfa74	-0.06883708
210	0xbd55579e	-0.05208551
211	0xbd252207	-0.040315654
212	0x3e12c069	0.14331211
213	0xbd8d92f3	-0.06912794
214	0x3a8d8e2f	0.001079982
215	0x3cfa2ff7	0.03054045
216	0x3dd6ca42	0.10487796
217	0x3dc6c3f9	0.097053476
218	0x3cecf94c	0.028927468
219	0xbdbf2cd9	-0.09334726
220	0x3dbaaf89	0.09115512
221	0xbdb0f4b7	-0.08640426
222	0x3cc892c8	0.024484053
223	0x3d431a12	0.047632284
224	0x3d2cd9aa	0.042199768
225	0xbc5a29ae	-0.013315601
226	0xbcb94a6d	-0.022618497
227	0xbd7a2e33	-0.061079215
228	0x3dcc88a8	0.099870026
229	0xbda7e1f4	-0.08197394
230	0xbdb82af1	-0.089925654
231	0x3dcbf2b1	0.09958399
232	0xbcce8aff	-0.025212763
233	0xbd8ae64d	-0.06782208
234	0xbd6cb91b	-0.057793718
235	0xbdfcb73a	-0.12339635
236	0x3d9030f5	0.07040588
237	0xbd8cfeac	-0.06884512
238	0xbde70d80	-0.11281872
239	0x3d7a2c7a	0.061077572
240	0xbd64c8d3	-0.055855583
241	0xbdb63050	-0.08895934
242	0x3d1ae92b	0.037820023
243	0xbd0eb4ab	-0.034840267
244	0x3cf9013c	0.030396096
245	0x3d9c66d6	0.07636802
246	0x3df23d3d	0.118280865
247	0xbdbaeda5	-0.09127358
248	0xbcf61537	-0.030039413
249	0xbcecff39	-0.028930293
250	0x3d34fcb1	0.044186298
251	0x3ddc19f2	0.10747136
252	0xbd99f898	-0.075181186
253	0x3d27fbc6	0.041011594
254	0x3d4202a1	0.04736579
255	0x3d1b8575	0.03796907

bias f4 [50]
0	0x3d5bb3a8	0.05363813
1	0x3c094828	0.00837902
2	0x396136a9	0.00021478035
3	0xbd9b8366	-0.07593422
4	0xbd3540f2	-0.04425139
5	0xbd52e90c	-0.051491782
6	0xbd8cb898	-0.06871146
7	0x3dc6a881	0.09700108
8	0x3d1e8dff	0.038709637
9	0xbd5cb6d5	-0.0538853
10	0x3d8b6b14	0.06807533
11	0xbca9db61	-0.02073449
12	0xbd671c8e	-0.056423716
13	0xbd855a7c	-0.06511399
14	0x3cde559b	0.02714043
15	0x3da97982	0.08275129
16	0xbd06715e	-0.03282296
17	0xbd57b31e	-0.052661054
18	0xbdc4d7bd	-0.09611461
19	0xbd4a9c0c	-0.049465224
20	0x3d213c75	0.039364297
21	0x3d214ef4	0.039381936
22	0xbd5a170f	-0.053244647
23	0xbd9aea73	-0.07564249
24	0x3dcb28e3	0.09919908
25	0xbd7c6050	-0.06161529
26	0x3d97273a	0.07380529
27	0xbc41ff14	-0.0118406005
28	0xbd02e55c	-0.031957015
29	0xbc49c46b	-0.012314896
30	0xbcb2f5b3	-0.021845674
31	0x3cef5ac8	0.029218093
32	0xbbbc8af5	-0.0057538697
33	0xbd2a6cb7	-0.041607585
34	0xbc22893a	-0.009920413
35	0xbd07847d	-0.033085335
36	0x3d1d4067	0.038391497
37	0xbd93cd04	-0.07216838
38	0x3d35446f	0.044254716
39	0x3d6cd72c	0.05782239
40	0x3d535acb	0.05160026
41	0x3ce17e88	0.027526155
42	0xbda5b3c2	-0.08090927
43	0x3ca1b567	0.01973982
44	0xbc92360c	-0.017848037
45	0x3dc94341	0.09827281
46	0xbd389270	-0.04506153
47	0xbd443100	-0.047898293
48	0x3d04e2a2	0.032442696
49	0x3bc77e8c	0.0060880836

weight f4 [1, 50]
0	0x3b330c89	0.0027320704
1	0x3d544408	0.051822692
2	0x3c21acb9	0.00986784
3	0x3e03e479	0.12880124
4	0xbde0897d	-0.10963724
5	0xb9874720	-0.000258022
6	0x3de51dbc	0.11187312
7	0xbdaa1c74	-0.08306208
8	0xbc186837	-0.0093021905
9	0x3c71bad2	0.014754014
10	0xbddc1491	-0.1074611
11	0x3df10852	0.11769165
12	0x3d2eb020	0.042648435
13	0x3b50526c	0.0031787409
14	0x3c4d1e9d	0.012519506
15	0xbc025854	-0.007955629
16	0xba709d28	-0.00091786915
17	0xbb5b1b5d	-0.0033433058
18	0x3de85f6e	0.11346327
19	0xbad72b4d	-0.0016416103
20	0x3d4f475a	0.050605156
21	0x3d37fd28	0.044919163
22	0x3cda0ead	0.026618326
23	0x3aeccd3e	0.0018066538
24	0xbe033644	-0.1281367
25	0xbd7cb6c9	-0.061697755
26	0xbb1fc783	-0.0024380393
27	0xbce5c969	-0.028050141
28	0x3c82653f	0.015917419
29	0x3d27f14a	0.041001596
30	0xbce5b119	-0.028038548
31	0xbb230c49	-0.0024879149
32	0xbbb35436	-0.005472685
33	0x3d2f5284	0.042803302
34	0x3e0fb953	0.1403554
35	0xbd49b747	-0.049247053
36	0xbd8b15a3	-0.06791236
37	0x3b951c8d	0.0045505227
38	0x3daeca51	0.085346825
39	0xb97e7f6e	-0.00024270799
40	0x3a18fa03	0.00058355945
41	0xbd320fb2	-0.043472
42	0xbb4b429d	-0.0031015046
43	0xbdeca4bd	-0.11554859
44	0xbd84eee1	-0.06490875
45	0xbd4af56d	-0.049550463
46	0xbbdec47d	-0.0067983256
47	0x3b2d2c66	0.0026424169
48	0x3b659010	0.0035028495
49	0xbbe93250	-0.0071165934
