model_sensegram_rnnlocation.pt (torch_old, 13910 bytes, 7 tensors)

weight_ih_l0 f4 [40, 10]
000000 ac 29 52 bf 1e 4d 88 bf 85 4c a4 3d b7 f7 91 3e
       -0.82094836 -1.0648534 0.080224074 0.28509304
000010 68 be 60 bd 92 0f 30 bf 53 78 3f 3d 37 96 d0 3a
       -0.054869086 -0.6877376 0.04674561 0.0015913908
000020 5a e3 c6 be fc f9 00 bf 38 ca 70 3e 5d 43 f4 3d
       -0.3884533 -0.50381446 0.2351464 0.11926911
000030 44 94 85 bd 85 54 2b 3e 1a 69 c6 bd 9a 63 a4 be
       -0.0652242 0.1673146 -0.09688015 -0.3210724
000040 0c 21 88 be 33 44 24 bd 5e 01 32 be 30 7f 48 be
       -0.26587713 -0.040104102 -0.17383334 -0.19579768
000050 5c a0 d1 be 04 9c c6 be 8a f5 fe be 15 9e 96 bc
       -0.40942657 -0.38790905 -0.49796706 -0.018385926
000060 4f ae 1b bf ef 69 d2 be 82 98 74 bd da 7a 7c be
       -0.6081285 -0.41096446 -0.059715755 -0.24656239
000070 09 51 20 3e a3 09 47 bd d2 2f 18 3d fb 97 09 be
       0.15655912 -0.048593175 0.03715498 -0.13436882
000080 94 75 a3 3c 65 0d 30 3d 7c ed 11 be 68 0f cc 3c
       0.019953527 0.042981524 -0.1425075 0.02490969
000090 0b 4e 23 3d 66 f8 c9 bc 93 30 2b be 0d 0e 80 be
       0.03986935 -0.024654578 -0.16717748 -0.2501072
0000a0 05 19 4e 3d 2d 4f cb be 42 c4 f8 3e 2c 99 bb 3e
       0.05031683 -0.39708844 0.48587233 0.36640298
0000b0 1f 69 c7 3e f5 9a 14 3f 49 60 ce 3e 14 c1 c9 3d
       0.3894739 0.58048946 0.40307835 0.0985128
0000c0 ff 48 91 be 0a 55 a2 bc 21 27 50 bd 57 e4 6a be
       -0.28376004 -0.01981594 -0.050818566 -0.22938667
0000d0 30 da 8f bd e5 e0 33 3e 82 70 51 be 4a 18 97 bd
       -0.07024038 0.17566259 -0.20453075 -0.0737768
0000e0 37 bc 6e be 15 4c 19 3e a4 1b 94 3e 7e ee 45 be
       -0.23313986 0.14970429 0.28927338 -0.19329259
0000f0 94 29 a2 3e 8d 13 26 3e a8 cc f6 bc 57 db 27 be
       0.31672347 0.16218396 -0.030126885 -0.16392265
000100 eb a5 d7 be a8 aa 68 bd 26 64 4a bd 23 a8 e5 bd
       -0.42118773 -0.056803375 -0.049411915 -0.1121371
000110 05 55 00 3e c9 08 b3 be f2 8a 2f bf d4 ef 32 bf
       0.12532432 -0.3496764 -0.6857139 -0.698972
000120 c4 1e 60 bd ed a4 f4 be 43 e8 89 be 54 10 36 be
       -0.05471684 -0.47782078 -0.26935014 -0.17779666
000130 98 da 39 3d d9 ae d0 be 4f e1 c2 bd d4 ea 9f be
       0.045374483 -0.40758398 -0.095156305 -0.31233847
000140 76 f0 f7 be a0 68 b2 be 58 b3 80 be ea 59 91 3c
       -0.48425645 -0.34845448 -0.25136828 0.01774307
000150 fc 25 9f bd a6 8a 08 bf 1f a1 26 3e 21 b4 88 be
       -0.07770917 -0.5333656 0.162724 -0.26699927
000160 92 58 28 bf dc 1b f7 be a1 0f 95 3d bd cc 5f 3e
       -0.6576015 -0.48263443 0.072783716 0.21855445
000170 08 5d 82 be 85 02 0c 3d ad 4a d4 be 05 63 53 be
       -0.25461602 0.03418209 -0.41463223 -0.20643242
000180 58 cb 16 bf ae 69 53 be 27 df 22 bf 29 10 bc be
       -0.5890403 -0.20645782 -0.63621753 -0.3673108
000190 90 13 d8 bc b6 70 4d be b9 89 1f bd 23 a0 84 be
       -0.026376516 -0.20062527 -0.038949702 -0.25903425
0001a0 22 3f 13 bf 04 02 34 bf d6 5f 88 3e 8f 91 1b 3e
       -0.5751821 -0.70315576 0.26635617 0.15192245
0001b0 fa 02 bb bd e1 2a 88 be b6 3a 3a bd ed 5c bb 3e
       -0.09131427 -0.26595214 -0.045466147 0.36594334
0001c0 b0 48 97 3e 0e 81 ad 3e 71 89 04 3f fb bb 11 3f
       0.29547644 0.33887523 0.5177222 0.5692746
0001d0 47 0b 26 be f6 f3 2f 3e 5b e8 04 3e c5 5d b9 3e
       -0.1621524 0.17182907 0.12979262 0.36204353
0001e0 24 6b 19 3f 87 13 9c 3e 4a 5a 15 3f 66 90 ae 3e
       0.5992911 0.30483648 0.58340895 0.34094542
0001f0 e8 4f 7b 3e 28 c4 df 3e 4c 28 29 3f a1 56 ba 3e
       0.245422 0.43704343 0.66077113 0.36394218
000200 0f c8 e3 3d 36 67 84 be 90 50 4b be c9 de 24 3e
       0.111221425 -0.25859994 -0.19854951 0.16100611
000210 ae 85 1b 3e 9f 51 3d 3e 85 22 11 3e b2 bb ec bd
       0.15187714 0.18488167 0.14173324 -0.115592375
000220 fe b8 c7 be 74 00 37 bc 3b 2c ca be 3c e8 14 bd
       -0.39008325 -0.011169542 -0.3948687 -0.03635429
000230 1e b0 09 3e 82 a0 ad 3e 38 6a a1 3e c4 af c2 3d
       0.1344609 0.3391152 0.3152635 0.09506181
000240 35 9e 35 3e 77 fd 15 3d b5 fc 67 3e da aa d3 bd
       0.17736132 0.036618676 0.22654994 -0.10335322
000250 fa bb a5 be 99 71 0b be e2 53 1f bd dc ce 37 bd
       -0.32369977 -0.13617553 -0.038898356 -0.04487501
000260 fa 6a be 3d 56 e6 91 be 01 a0 cc be 90 a4 2d bf
       0.09297748 -0.28496045 -0.39965823 -0.6782923
000270 b6 c7 55 bd cf 01 04 be 0f b2 1c bd 9a 98 32 be
       -0.052192412 -0.12891315 -0.038255747 -0.17441025
000280 f3 56 49 3e 5d 36 0c bb 7a a3 ac 3e 8d 7c 52 3e
       0.19662075 -0.0021394708 0.33718473 0.20555325
000290 70 92 ed 3b fd d8 28 3e dd 46 f3 bd a3 d3 7d be
       0.0072501227 0.16489024 -0.118787505 -0.24787764
0002a0 46 e3 c2 be 3a 13 09 bf 31 9e d4 3e 48 d6 c8 3e
       -0.3806402 -0.5354496 0.4152694 0.39225984
0002b0 bc 47 15 3e cc 68 00 3f b1 b8 99 3e 15 11 a9 3e
       0.14578146 0.5015991 0.3002372 0.33020845
0002c0 f2 f0 0c 3a 2a 3e 73 3c f1 ac 36 be 30 ee e3 bd
       0.000537648 0.014846364 -0.1783941 -0.11129415
0002d0 4e b7 72 3e d2 a3 05 bd 47 1a 3b be 03 60 db bd
       0.23702738 -0.032626934 -0.18271743 -0.10711672
0002e0 c5 23 41 be 87 4a 61 be 0d 65 20 3f fe de 01 3e
       -0.18861301 -0.22001086 0.6265419 0.12682721
0002f0 4c e4 71 3e db d9 8e 3e 4c d4 f9 3e 8d d8 ac 3e
       0.23622245 0.27900586 0.48794782 0.33758965
000300 5c 2d b8 3e 7c 41 23 be a9 eb a7 3c dd b1 bd bd
       0.35972106 -0.15942949 0.020498114 -0.0926244
000310 3b 85 24 be 6c 2b d5 bb 46 40 8c bd b7 54 b8 bb
       -0.16066448 -0.0065054204 -0.06848197 -0.005625333
000320 93 61 0e bf 31 8e 64 be a9 eb e8 be 48 97 e2 be
       -0.55617636 -0.22319867 -0.45492294 -0.44256043
000330 d8 b3 12 3f 40 4e 72 3e cb 07 5c be 8b de 8e bd
       0.5730567 0.23662663 -0.21487348 -0.069760405
000340 c0 9b 73 3e 51 ee 17 bd b5 72 e1 bd ac d3 37 be
       0.23789883 -0.03709251 -0.11008207 -0.1795184
000350 72 c8 ae be 70 1e ac bb 81 b3 a3 3e 3b e3 58 3e
       -0.34137303 -0.005252652 0.31972888 0.21180432
000360 0b eb b7 3d 9e f2 f7 bd 9b 7b d7 3e 68 b5 c2 bd
       0.08980378 -0.121068224 0.4208649 -0.09507257
000370 7b 34 73 3e aa 0d 22 3c 49 1f fc bc fb dd 4d 3e
       0.23750488 0.009890953 -0.030776637 0.2010421
000380 ff b4 2d 3e f8 7a 01 3e 02 62 25 be 1d 26 ce be
       0.16963576 0.12644565 -0.16150668 -0.40263453
000390 d7 a5 c9 be fe ed dc 3d 91 db 22 be e7 39 a4 be
       -0.39384338 0.10787581 -0.1590407 -0.32075426
0003a0 3a a8 99 be 0a 67 55 3d fe 80 b9 bc b8 f4 d4 3d
       -0.3001116 0.05210022 -0.022644516 0.10398239
0003b0 f0 ac a6 be c7 29 30 3e 98 3b a3 bd 6f 40 1d 3e
       -0.32553816 0.17203437 -0.07970351 0.1535661
0003c0 45 61 b5 bd b3 b2 d0 3e e9 eb 6a 3e 20 21 67 be
       -0.08856443 0.40761337 0.22941555 -0.2257123
0003d0 c8 34 99 be a7 c8 98 be 8f 47 89 3b a2 e5 58 bd
       -0.2992308 -0.29840586 0.0041894387 -0.05295337
0003e0 ad 20 c6 bd 48 db db bd 98 00 ae be 1f c2 ae be
       -0.09674201 -0.10735184 -0.33984828 -0.34132478
0003f0 eb d7 74 be 3b 68 f8 bd 1d d0 75 bd cf bc ec bd
       -0.23910491 -0.121292554 -0.060012925 -0.1155945

weight_hh_l0 f4 [40, 10]
000000 68 17 ce 3e c8 ab 82 3e 49 a8 f0 bd ab 38 d4 be
       0.40252233 0.25521684 -0.11750848 -0.41449484
000010 17 72 73 be ad 0c 99 be c6 16 07 bf 1f 92 98 3d
       -0.2377399 -0.29892483 -0.52769125 0.074497454
000020 f0 5c 9d be 1d fa dc 3e 1d 78 23 be 96 28 c2 3e
       -0.30734968 0.4315957 -0.15963788 0.3792159
000030 f7 99 89 be 44 85 9d be 2f bb 80 be 12 24 a9 3e
       -0.26875278 -0.30765736 -0.2514281 0.33035332
000040 67 8e 11 bf ee 9c 10 3f f0 4d d6 3d 34 4e 9a 3e
       -0.56857914 0.56489456 0.10464084 0.3013779
000050 8c 2e 4e 3e e8 1c 42 3b ff 3e f3 3e 9d b3 e1 be
       0.20134944 0.002961928 0.47509 -0.44082347
000060 c5 76 ef be 74 e2 83 3e b9 bc b9 be 4b 23 e7 3e
       -0.467703 0.25758708 -0.36276796 0.45144114
000070 db f8 52 be ec a2 8d 3e 58 25 a8 3d 05 a2 c2 bd
       -0.20602743 0.27663362 0.08210248 -0.09503559
000080 80 b6 be 3d b8 f4 b9 3d 3c b0 71 be b3 3a 98 3e
       0.09312153 0.090798795 -0.23602384 0.29732284
000090 68 44 e2 be da 83 92 be af d1 90 be 1e 67 87 3e
       -0.44192815 -0.2861622 -0.28284976 0.2644586
0000a0 a3 dc 94 3e 5c 7e 3d 3c ad cf 15 3e 75 cf 54 3d
       0.29074582 0.011565771 0.14630003 0.05195566
0000b0 20 6f d0 be b6 46 ba ba eb c9 11 bc 16 fa 9e 3e
       -0.40709782 -0.0014211747 -0.008898239 0.31050175
0000c0 18 be 57 bc 47 db ce be 5a 27 33 be 1c b3 13 be
       -0.0131678805 -0.4040167 -0.1749548 -0.14423794
0000d0 fa fa 5d 3e d2 84 a5 be 3b 57 ba be 46 ba 8f 3d
       0.21677771 -0.32327896 -0.36394677 0.07017951
0000e0 58 f0 b6 be 7e 8a 2c 3f f6 26 11 3e c5 b0 14 be
       -0.35730243 0.6739882 0.14175019 -0.14520557
0000f0 19 19 b0 bc 26 05 8a 3e 3a 70 8a be db 45 64 bd
       -0.021496342 0.26957053 -0.27038747 -0.055730682
000100 d4 15 ba bd 80 5b 8b bd 0d f7 d0 be 7f 37 9b 3d
       -0.09086195 -0.068045616 -0.40813485 0.075789444
000110 42 53 d6 3e 0b ee 9f 3e 16 55 85 be ff 76 97 be
       0.41860396 0.312363 -0.26041478 -0.29582974
000120 45 32 bd bb 19 e8 06 be 1a b3 0c bd 0a e8 a4 3e
       -0.005773815 -0.13174476 -0.034350492 0.32208282
000130 d0 7a cd be 1f 83 04 bb 4e 71 50 3e 06 85 f6 3d
       -0.4013276 -0.0020219756 0.20355722 0.12037091
000140 60 bf 95 3c 77 ff 64 3e d4 5b 0f 3f f1 8f 27 bf
       0.018279731 0.22363077 0.55999494 -0.6545401
000150 85 f2 f8 be ba 73 0d be 7f f8 d1 be 65 4e b5 3e
       -0.48622528 -0.13813677 -0.410099 0.35411373
000160 a1 88 a1 be 28 1f 40 3e 8e a1 ac 3e 34 85 4b 3e
       -0.31549552 0.18761885 0.33717006 0.19875032
000170 d8 23 e7 3d d3 de 9a bd 33 ad 13 bf 63 ab 8e 3e
       0.112861335 -0.075620316 -0.57686156 0.27865133
000180 98 f3 ae bc 6b a7 07 be c5 26 1b 3d f2 a6 88 be
       -0.021356389 -0.13247459 0.03787877 -0.2668987
000190 ba ff 63 3f 26 51 32 be d9 8d 03 3e ee 31 26 3f
       0.8906208 -0.17413768 0.1284708 0.64919937
0001a0 b1 db c9 3e 42 8e d2 be fb 72 05 3e 75 6a b9 be
       0.39425424 -0.4112416 0.13032143 -0.36214033
0001b0 f6 f1 1c bf ad 8c 14 bd 14 22 0b 3e 80 2f bd 3e
       -0.61306703 -0.03626697 0.13587219 0.36950302
0001c0 8a 81 74 bd e9 20 8a 3d 98 0e bb bd 5e 74 48 bc
       -0.05969385 0.06744558 -0.09133643 -0.012234775
0001d0 dc fa c3 be 51 e8 7e bd 85 32 53 3b 16 ce 2b 3e
       -0.38277328 -0.062233273 0.0032226157 0.16777834
0001e0 7d 77 2c 3f b3 14 b2 3e 06 66 f6 bd 53 a1 f8 3e
       0.67369825 0.34781417 -0.12031178 0.4856058
0001f0 08 85 98 be d5 e0 8a be 63 1f 9d be 12 a0 4c be
       -0.29788995 -0.27124658 -0.3068801 -0.19982937
000200 4c 8f 51 bf bc 7d 4b 3e 21 b3 80 3d d3 37 33 3e
       -0.8185928 0.19872183 0.06284166 0.17501764
000210 ac 00 7a 3e 0f 1d 06 3e 71 5d 02 bf 5a f9 e0 3e
       0.24414319 0.13097022 -0.5092383 0.4394024
000220 51 0d e0 be c9 9f a3 3e 8d c3 28 3e 36 2b c1 bb
       -0.4376016 0.31957844 0.16480847 -0.0058950437
000230 9d ba 57 3e 02 92 cf bd 79 13 b2 3d ec 2f 56 be
       0.21067281 -0.10135271 0.0869512 -0.20916718
000240 13 46 60 be 41 15 c4 3e d0 5d 4b be eb 1f 95 3e
       -0.21901731 0.38297465 -0.19860005 0.29125914
000250 8f 15 ca 3e 17 be a3 be 20 8e 92 3e ad c0 ba 3d
       0.39469573 -0.31980965 0.28624058 0.09118781
000260 5f fb df 3d ad 92 a2 3d 70 21 b5 3d 10 bd 1c bd
       0.10936617 0.079381324 0.08844268 -0.03826624
000270 46 d7 01 3e 19 28 5e 3e bd 67 cd be 0b 90 29 be
       0.12679777 0.21694984 -0.4011821 -0.16558854
000280 6f 73 bd be 30 39 e2 bc b3 28 de be a6 3b 6c be
       -0.3700213 -0.02761516 -0.43390426 -0.23069629
000290 97 32 73 be 89 9b 00 3f d6 fe b2 be 84 e2 99 3e
       -0.23749767 0.5023733 -0.3496005 0.3005563
0002a0 dc d3 f4 3d 01 b8 b3 3e 2f 6f 20 be ed 0c c3 3c
       0.119544715 0.3510132 -0.15667413 0.023809874
0002b0 0f 74 ec be 12 cc 4d be c3 f6 8e 3e c2 35 5f be
       -0.46182296 -0.20097378 0.2792264 -0.2179785
0002c0 d8 55 ac 3d b1 d4 7a 3e 20 8e 39 3d 3c 04 10 be
       0.08414811 0.24495198 0.045301557 -0.14064115
0002d0 f1 96 55 3f f5 10 28 3e d7 1c 8f be 02 4b 0d 3d
       0.83433443 0.16412719 -0.2795169 0.03449536
0002e0 d2 8f 6f be 12 8e af bd 70 7e 54 3e 0c df 02 bf
       -0.23394707 -0.0857202 0.20751357 -0.5112159
0002f0 20 dc 12 bf 56 7a b7 be 9d 0d 0f bd 2d 38 4a be
       -0.57367134 -0.35835522 -0.034925092 -0.19747992
000300 f0 31 90 3e 44 4d c0 3e 87 b8 93 bd 53 db d4 3b
       0.281631 0.3755895 -0.0721293 0.006495872
000310 3a 69 7d 3e 03 14 39 bd 47 7c bb 3d 8c 07 64 3e
       0.24747172 -0.0451851 0.091545634 0.22268504
000320 90 8d d2 be a2 6a b7 be 75 57 8d bd 01 ab 50 3e
       -0.4112363 -0.35823542 -0.06901447 0.20377733
000330 ef 46 15 3e 20 68 89 3e f5 f6 08 3e 2f ae 26 bf
       0.1457784 0.26837254 0.13375457 -0.65109533
000340 48 d0 19 3f 9d 40 bc bd ed aa 69 be 4c d9 a2 be
       0.60083437 -0.091920115 -0.2281911 -0.3180641
000350 17 c6 78 be 4e 51 da 3a 96 74 a2 3e 5e 5d 17 3f
       -0.24294315 0.0016656311 0.31729573 0.5912684
000360 b4 bc b1 3c df 94 0a bf 80 d0 18 3e 84 fa d8 3e
       0.021696426 -0.5413341 0.14923286 0.42378628
000370 3f 91 2b 3f 14 3d ae 3e 98 57 e8 bd 3e cb a2 be
       0.670185 0.34030974 -0.11344832 -0.31795686
000380 84 2b 0b bf e5 8d a3 be 92 ea 0e bf d8 fb f5 3d
       -0.54363275 -0.31944194 -0.55826676 0.12010926
000390 05 81 20 bf 7d fc 2a be 9f 05 82 3e 09 4b b2 be
       -0.6269687 -0.16697879 0.25394914 -0.34822872
0003a0 30 34 3c 3e 22 d1 05 3e a2 35 82 3e c0 38 e9 bd
       0.18379283 0.13068059 0.25431544 -0.11387777
0003b0 fa 2e c0 3e 98 0f 04 3e 3e f8 e3 bd 2e e0 8e 3c
       0.3753584 0.12896574 -0.11131333 0.017440882
0003c0 01 72 b6 bc 2c 56 d8 bd fd 45 fd 3c 77 84 01 3f
       -0.022271158 -0.10563311 0.030917162 0.5059275
0003d0 64 b2 eb 3e ac cb 85 be af ed 92 3e e1 2a e5 bd
       0.4603454 -0.26131952 0.28696963 -0.11189819
0003e0 8c 6e 4c 3e 1c bd c1 bd ae fa b8 3e 26 88 f5 3d
       0.19964045 -0.09459898 0.36128753 0.11988859
0003f0 f0 90 35 3d db 96 80 3e 1d 46 07 be 8d 02 3a 3e
       0.044327676 0.25115094 -0.1321034 0.18165036

bias_ih_l0 f4 [40]
000000 6c 9c 42 be 70 b7 33 3f 7b 87 13 3e 4b bc 97 3e
       -0.19004983 0.7020178 0.1440715 0.29635844
000010 e8 c6 37 3e 8e e6 54 3e ee 91 43 be 09 2b 42 bc
       0.1794697 0.20791075 -0.19098637 -0.011851081
000020 d4 59 f9 3e 34 75 56 3e b8 0b d0 3b 26 02 4b 3e
       0.48701346 0.20943147 0.0063490532 0.19825038
000030 ed 23 b8 bd e4 01 a8 3e b0 ab 9d 3e e3 f8 6f bd
       -0.08991227 0.32813942 0.3079505 -0.058586966
000040 f3 43 64 3e 40 c1 4d 3d 1f 86 ab be fb 2b f3 3e
       0.22291546 0.050233126 -0.33500764 0.47494492
000050 56 83 59 be 16 5e a4 3e c0 49 f2 be 85 72 6b bd
       -0.21241507 0.32103032 -0.47321892 -0.05748226
000060 b7 01 8d 3d 95 08 8a 3e 36 ab 45 be 50 7a ae 3d
       0.06885093 0.26959673 -0.19303593 0.08519423
000070 e7 87 97 be 9a ac b1 3e 82 6a f7 3d a5 9d 8e 3e
       -0.29595873 0.34701997 0.12080862 0.27854648
000080 5b 08 f6 3e 58 57 b1 3d 81 81 43 3e 3b 1b cb bd
       0.4805325 0.086592376 0.1909237 -0.09917303
000090 40 a5 94 3d ea 16 34 3e 66 27 94 3e 96 fa 7d 3d
       0.072580814 0.17586866 0.2893631 0.062006555

bias_hh_l0 f4 [40]
000000 c0 14 93 be 66 56 ac 3e 34 7d 14 3f 79 2d 1e 3e
       -0.28726768 0.33659667 0.58003545 0.15447034
000010 ca 98 97 3e 9a 09 d9 bd 80 3e b0 3e fb 06 b7 3e
       0.29608756 -0.105975345 0.34422684 0.35747513
000020 bd 3f 18 3e 74 77 6d 3e 1c 4f b1 bd 2b 61 c6 3e
       0.14868064 0.23190099 -0.08657667 0.38746008
000030 92 9e 8d 3d 8c 01 9f 3e 2e 1a b6 3e 9f a7 7f bd
       0.069150105 0.31055868 0.3556685 -0.062415715
000040 d1 57 9b 3d cf 5a 13 bd dd 92 f0 be b3 19 e0 3e
       0.07585109 -0.035975274 -0.46987048 0.43769607
000050 5a cf 5e 3e 56 42 1c 3f 04 6a 9b bd 90 d1 cf 3d
       0.21758786 0.6103872 -0.0758858 0.10147393
000060 ea b5 81 3e 48 79 46 3e f2 dc e0 3d 70 e0 15 be
       0.25334102 0.19382203 0.10979642 -0.14636397
000070 6d bb 3a bd 3a 33 17 3f be b3 da 3d 89 76 60 3e
       -0.0455889 0.5906254 0.10678814 0.21920218
000080 f1 76 f7 3e 2a a1 dc bc 0e 65 58 3e 52 1b 8f be
       0.48332933 -0.026932318 0.211323 -0.2795053
000090 5b 2d 89 3e ba 8a 83 3d e0 a3 ec 3e c1 3f a4 3e
       0.26792416 0.06422944 0.46218777 0.3207989

weight f4 [5, 10]
000000 9e 94 ff 3e 47 8e 62 3f 63 b0 81 bf eb 60 d3 3e
       0.49918073 0.8849835 -1.0131954 0.4128488
000010 9d a2 43 3f 24 1d ea bd cd 7e d2 bc e1 cf 37 bf
       0.76420003 -0.114313394 -0.025695229 -0.71801573
000020 1c f1 27 bf 23 67 84 3f 07 90 66 bf 19 a6 7e bf
       -0.6560228 1.0343975 -0.9006352 -0.99472195
000030 80 c3 4b 3f b0 42 13 bf 5e 09 2e bf d3 c0 ba 3d
       0.79595184 -0.5752363 -0.67983043 0.091188096
000040 52 26 83 3d 09 de 63 3f df 55 f5 3e c5 83 44 bf
       0.064037934 0.89010674 0.47917077 -0.76763564
000050 d8 b5 49 3f 1f c6 66 3f d2 20 69 bf 4c 46 8f 3e
       0.78793097 0.9014606 -0.91065705 0.2798332
000060 b3 68 4e 3f 4c 58 99 bd 56 76 5f 3c 6a 22 31 bf
       0.8062851 -0.074875444 0.013639053 -0.69193137
000070 a4 da 6b bf 2a d3 4d 3f 19 f9 3d 3f 4a 28 33 3f
       -0.92130494 0.80400336 0.7420822 0.6998335
000080 be df 7e bf 40 f6 76 3e 2c dc 37 3f 4c 45 d5 be
       -0.99560153 0.24117374 0.7182033 -0.41654432
000090 13 17 c3 bd 31 7e 8b bf ba fe 66 bf 40 20 17 3f
       -0.095258854 -1.0897886 -0.9023243 0.59033585
0000a0 bd 3d 58 3f d6 fc 5f 3f 5c 59 09 bf e7 9f 01 3f
       0.84469205 0.8749517 -0.53651977 0.50634617
0000b0 13 00 71 3f d1 f8 59 be c3 37 f1 3d 6f 2e 12 bf
       0.9414074 -0.21286322 0.11778214 -0.571021
0000c0 0e 2e 32 bf 51 87 48 3f
       -0.69601524 0.78331476

bias f4 [5]
000000 7a 87 0c 3f b5 43 14 bf b6 9f 0b 3f 9e a2 11 3f
       0.5489422 -0.5791581 0.54540575 0.5688876
000010 40 42 2c 3f
       0.6728859

weight f4 [1, 5]
000000 b8 7d e9 bf f8 79 02 40 88 44 e7 bf 69 d2 01 c0
       -1.8241491 2.0386944 -1.8067789 -2.0284674
000010 d7 13 00 c0
       -2.001211
